…
se, scale=0.5, seed=42, shear=0.0, show=False, show_boxes=True, show_conf=True, show_labels=True, simplify=True, single_cls=False, source=None, split=val, stream_buffer=False, task=detect, time=None, tracker=botsort.yaml, translate=0.1, val=True, verbose=True, vid_stride=1, visualize=False, warmup_bias_lr=0.1, warmup_epochs=5, warmup_momentum=0.8, weight_decay=0.0005, workers=8, workspace=None
Overriding model.yaml nc=80 with nc=1

                   from  n    params  module                                       arguments                     
  0                  -1  1      1856  ultralytics.nn.modules.conv.Conv             [3, 64, 3, 2]                 
  1                  -1  1     73984  ultralytics.nn.modules.conv.Conv             [64, 128, 3, 2]               
  2                  -1  2    173824  ultralytics.nn.modules.block.C3k2            [128, 256, 2, True, 0.25]     
  3                  -1  1    590336  ultralytics.nn.modules.conv.Conv             [256, 256, 3, 2]              
  4                  -1  2    691712  ultralytics.nn.modules.block.C3k2            [256, 512, 2, True, 0.25]     
  5                  -1  1   2360320  ultralytics.nn.modules.conv.Conv             [512, 512, 3, 2]              
  6                  -1  4   4272944  ultralytics.nn.modules.block.A2C2f           [512, 512, 4, True, 4, True, 1.2]
  7                  -1  1   2360320  ultralytics.nn.modules.conv.Conv             [512, 512, 3, 2]              
  8                  -1  4   4272944  ultralytics.nn.modules.block.A2C2f           [512, 512, 4, True, 1, True, 1.2]
  9                  -1  1         0  torch.nn.modules.upsampling.Upsample         [None, 2, 'nearest']          
 10             [-1, 6]  1         0  ultralytics.nn.modules.conv.Concat           [1]                           
 11                  -1  2   2102784  ultralytics.nn.modules.block.A2C2f           [1024, 512, 2, False, -1, True, 1.2]
 12                  -1  1         0  torch.nn.modules.upsampling.Upsample         [None, 2, 'nearest']          
 13             [-1, 4]  1         0  ultralytics.nn.modules.conv.Concat           [1]                           
 14                  -1  2    592640  ultralytics.nn.modules.block.A2C2f           [1024, 256, 2, False, -1, True, 1.2]
 15                  -1  1    590336  ultralytics.nn.modules.conv.Conv             [256, 256, 3, 2]              
 16            [-1, 11]  1         0  ultralytics.nn.modules.conv.Concat           [1]                           
 17                  -1  2   2037248  ultralytics.nn.modules.block.A2C2f           [768, 512, 2, False, -1, True, 1.2]
 18                  -1  1   2360320  ultralytics.nn.modules.conv.Conv             [512, 512, 3, 2]              
 19             [-1, 8]  1         0  ultralytics.nn.modules.conv.Concat           [1]                           
 20                  -1  2   2496512  ultralytics.nn.modules.block.C3k2            [1024, 512, 2, True]          
 21        [14, 17, 20]  1   1411795  ultralytics.nn.modules.head.Detect           [1, 16, None, [256, 512, 512]]
YOLOv12l summary: 488 layers, 26,389,875 parameters, 26,389,859 gradients, 89.4 GFLOPs

Transferred 1239/1245 items from pretrained weights
Freezing layer 'model.21.dfl.conv.weight'
[34m[1mAMP: [0mrunning Automatic Mixed Precision (AMP) checks...
[34m[1mAMP: [0mchecks passed ✅
[34m[1mtrain: [0mFast image access ✅ (ping: 0.0±0.0 ms, read: 1951.6±878.6 MB/s, size: 39.3 KB)
…
